…
2026-01-30 02:44:31 - WARNING - __main__ - Process rank: 1, device: cuda:1, n_gpu: 1 distributed training: True, 16-bits training: False
Not-llama mode
Map: 100%|█████████████████████████████████████████████████████████| 7473/7473 [00:00<00:00, 25877.56 examples/s]
Map: 100%|█████████████████████████████████████████████████████████| 1319/1319 [00:00<00:00, 24216.83 examples/s]
[WARNING|logging.py:329] 2026-01-30 02:44:34,116 >> Sliding Window Attention is enabled but not implemented for `sdpa`; unexpected results may be encountered.
Loading checkpoint shards: 100%|███████████████████████████████████████████████████| 2/2 [00:01<00:00,  1.74it/s]
UniR GRPO start Qwen2ForCausalLM(
  (model): Qwen2Model(
    (embed_tokens): Embedding(151936, 896)
    (layers): ModuleList(
      (0-23): 24 x Qwen2DecoderLayer(
        (self_attn): Qwen2Attention(
          (q_proj): Linear(in_features=896, out_features=896, bias=True)
          (k_proj): Linear(in_features=896, out_features=128, bias=True)
          (v_proj): Linear(in_features=896, out_features=128, bias=True)
          (o_proj): Linear(in_features=896, out_features=896, bias=False)
        )
        (mlp): Qwen2MLP(
          (gate_proj): Linear(in_features=896, out_features=4864, bias=False)
          (up_proj): Linear(in_features=896, out_features=4864, bias=False)
          (down_proj): Linear(in_features=4864, out_features=896, bias=False)
          (act_fn): SiLU()
        )
        (input_layernorm): Qwen2RMSNorm((896,), eps=1e-06)
        (post_attention_layernorm): Qwen2RMSNorm((896,), eps=1e-06)
      )
    )
    (norm): Qwen2RMSNorm((896,), eps=1e-06)
    (rotary_emb): Qwen2RotaryEmbedding()
  )
  (lm_head): Linear(in_features=896, out_features=151936, bias=False)
)
qwen reasoning module load
ref_model Qwen2ForCausalLM(
  (model): Qwen2Model(
    (embed_tokens): Embedding(151936, 2048)
    (layers): ModuleList(
      (0-35): 36 x Qwen2DecoderLayer(
        (self_attn): Qwen2Attention(
          (q_proj): Linear(in_features=2048, out_features=2048, bias=True)
          (k_proj): Linear(in_features=2048, out_features=256, bias=True)
          (v_proj): Linear(in_features=2048, out_features=256, bias=True)
          (o_proj): Linear(in_features=2048, out_features=2048, bias=False)
        )
        (mlp): Qwen2MLP(
          (gate_proj): Linear(in_features=2048, out_features=11008, bias=False)
          (up_proj): Linear(in_features=2048, out_features=11008, bias=False)
          (down_proj): Linear(in_features=11008, out_features=2048, bias=False)
          (act_fn): SiLU()
        )
        (input_layernorm): Qwen2RMSNorm((2048,), eps=1e-06)
        (post_attention_layernorm): Qwen2RMSNorm((2048,), eps=1e-06)
      )
    )
    (norm): Qwen2RMSNorm((2048,), eps=1e-06)
    (rotary_emb): Qwen2RotaryEmbedding()
  )
  (lm_head): Linear(in_features=2048, out_features=151936, bias=False)
)
Using sampling
[2026-01-30 02:44:45,027] [INFO] [config.py:733:__init__] Config mesh_device None world_size = 2
[WARNING|logging.py:329] 2026-01-30 02:44:51,414 >> `use_cache=True` is incompatible with gradient checkpointing. Setting `use_cache=False`.
[INFO] Saved metrics to run/GSM8k-llama-backbone3b_reasoning1b/output_log/metrics.jsonl
[INFO] Saved metrics to run/GSM8k-llama-backbone3b_reasoning1b/output_log/metrics.jsonl
…
