…
generation_config.json: 100%|███████████████████████████████████████████████████| 242/242 [00:00<00:00, 1.37MB/s]
config.json: 100%|██████████████████████████████████████████████████████████████| 661/661 [00:00<00:00, 3.89MB/s]
model.safetensors.index.json: 35.6kB [00:00, 73.8MB/s]
model-00001-of-00002.safetensors: 100%|██████████████████████████████████████| 3.97G/3.97G [00:09<00:00, 410MB/s]
Downloading shards: 100%|██████████████████████████████████████████████████████████| 2/2 [00:15<00:00,  7.77s/it]
Loading checkpoint shards: 100%|███████████████████████████████████████████████████| 2/2 [00:01<00:00,  1.77it/s]
UniR GRPO start Qwen2ForCausalLM(
  (model): Qwen2Model(
    (embed_tokens): Embedding(151936, 896)
    (layers): ModuleList(
      (0-23): 24 x Qwen2DecoderLayer(
        (self_attn): Qwen2Attention(
          (q_proj): Linear(in_features=896, out_features=896, bias=True)
          (k_proj): Linear(in_features=896, out_features=128, bias=True)
          (v_proj): Linear(in_features=896, out_features=128, bias=True)
          (o_proj): Linear(in_features=896, out_features=896, bias=False)
        )
        (mlp): Qwen2MLP(
          (gate_proj): Linear(in_features=896, out_features=4864, bias=False)
          (up_proj): Linear(in_features=896, out_features=4864, bias=False)
          (down_proj): Linear(in_features=4864, out_features=896, bias=False)
          (act_fn): SiLU()
        )
        (input_layernorm): Qwen2RMSNorm((896,), eps=1e-06)
        (post_attention_layernorm): Qwen2RMSNorm((896,), eps=1e-06)
      )
    )
    (norm): Qwen2RMSNorm((896,), eps=1e-06)
    (rotary_emb): Qwen2RotaryEmbedding()
  )
  (lm_head): Linear(in_features=896, out_features=151936, bias=False)
)
qwen reasoning module load
ref_model Qwen2ForCausalLM(
  (model): Qwen2Model(
    (embed_tokens): Embedding(151936, 2048)
    (layers): ModuleList(
      (0-35): 36 x Qwen2DecoderLayer(
        (self_attn): Qwen2Attention(
          (q_proj): Linear(in_features=2048, out_features=2048, bias=True)
          (k_proj): Linear(in_features=2048, out_features=256, bias=True)
          (v_proj): Linear(in_features=2048, out_features=256, bias=True)
          (o_proj): Linear(in_features=2048, out_features=2048, bias=False)
        )
        (mlp): Qwen2MLP(
          (gate_proj): Linear(in_features=2048, out_features=11008, bias=False)
          (up_proj): Linear(in_features=2048, out_features=11008, bias=False)
          (down_proj): Linear(in_features=11008, out_features=2048, bias=False)
          (act_fn): SiLU()
        )
        (input_layernorm): Qwen2RMSNorm((2048,), eps=1e-06)
        (post_attention_layernorm): Qwen2RMSNorm((2048,), eps=1e-06)
      )
    )
    (norm): Qwen2RMSNorm((2048,), eps=1e-06)
    (rotary_emb): Qwen2RotaryEmbedding()
  )
  (lm_head): Linear(in_features=2048, out_features=151936, bias=False)
)
Traceback (most recent call last):
  File "/storage/home/tamboli/UniR/src/unir/train.py", line 227, in <module>
    main(script_args, training_args, model_args)
  File "/storage/home/tamboli/UniR/src/unir/train.py", line 176, in main
    trainer = UniRGRPOTrainer(
              ^^^^^^^^^^^^^^^^
  File "/storage/home/tamboli/UniR/src/unir/trainer/UniRTrainer.py", line 1036, in __init__
…
