…
2026-01-30 02:40:46 - WARNING - __main__ - Process rank: 1, device: cuda:0, n_gpu: 1 distributed training: True, 16-bits training: False
Not-llama mode
Map: 100%|█████████████████████████████████████████████████████████| 7473/7473 [00:00<00:00, 27166.17 examples/s]
Map: 100%|█████████████████████████████████████████████████████████| 1319/1319 [00:00<00:00, 34589.33 examples/s]
[WARNING|logging.py:329] 2026-01-30 02:40:48,515 >> Sliding Window Attention is enabled but not implemented for `sdpa`; unexpected results may be encountered.
Loading checkpoint shards: 100%|███████████████████████████████████████████████████| 2/2 [00:00<00:00,  4.26it/s]
UniR GRPO start Qwen2ForCausalLM(
  (model): Qwen2Model(
    (embed_tokens): Embedding(151936, 896)
    (layers): ModuleList(
      (0-23): 24 x Qwen2DecoderLayer(
        (self_attn): Qwen2Attention(
          (q_proj): Linear(in_features=896, out_features=896, bias=True)
          (k_proj): Linear(in_features=896, out_features=128, bias=True)
          (v_proj): Linear(in_features=896, out_features=128, bias=True)
          (o_proj): Linear(in_features=896, out_features=896, bias=False)
        )
        (mlp): Qwen2MLP(
          (gate_proj): Linear(in_features=896, out_features=4864, bias=False)
          (up_proj): Linear(in_features=896, out_features=4864, bias=False)
          (down_proj): Linear(in_features=4864, out_features=896, bias=False)
          (act_fn): SiLU()
        )
        (input_layernorm): Qwen2RMSNorm((896,), eps=1e-06)
        (post_attention_layernorm): Qwen2RMSNorm((896,), eps=1e-06)
      )
    )
    (norm): Qwen2RMSNorm((896,), eps=1e-06)
    (rotary_emb): Qwen2RotaryEmbedding()
  )
  (lm_head): Linear(in_features=896, out_features=151936, bias=False)
)
qwen reasoning module load
ref_model Qwen2ForCausalLM(
  (model): Qwen2Model(
    (embed_tokens): Embedding(151936, 2048)
    (layers): ModuleList(
      (0-35): 36 x Qwen2DecoderLayer(
        (self_attn): Qwen2Attention(
          (q_proj): Linear(in_features=2048, out_features=2048, bias=True)
          (k_proj): Linear(in_features=2048, out_features=256, bias=True)
          (v_proj): Linear(in_features=2048, out_features=256, bias=True)
          (o_proj): Linear(in_features=2048, out_features=2048, bias=False)
        )
        (mlp): Qwen2MLP(
          (gate_proj): Linear(in_features=2048, out_features=11008, bias=False)
          (up_proj): Linear(in_features=2048, out_features=11008, bias=False)
          (down_proj): Linear(in_features=11008, out_features=2048, bias=False)
          (act_fn): SiLU()
        )
        (input_layernorm): Qwen2RMSNorm((2048,), eps=1e-06)
        (post_attention_layernorm): Qwen2RMSNorm((2048,), eps=1e-06)
      )
    )
    (norm): Qwen2RMSNorm((2048,), eps=1e-06)
    (rotary_emb): Qwen2RotaryEmbedding()
  )
  (lm_head): Linear(in_features=2048, out_features=151936, bias=False)
)
Using sampling
[2026-01-30 02:40:58,650] [INFO] [config.py:733:__init__] Config mesh_device None world_size = 2
Traceback (most recent call last):
  File "/storage/home/tamboli/UniR/src/unir/train.py", line 227, in <module>
    main(script_args, training_args, model_args)
  File "/storage/home/tamboli/UniR/src/unir/train.py", line 176, in main
    trainer = UniRGRPOTrainer(
…
